
Model: "sequential"
_________________________________________________________________
Layer (type)                 Output Shape              Param #   
=================================================================
dense (Dense)                (None, 480)               13440     
_________________________________________________________________
batch_normalization (BatchNo (None, 480)               1920      
_________________________________________________________________
dropout (Dropout)            (None, 480)               0         
_________________________________________________________________
dense_1 (Dense)              (None, 480)               230880    
_________________________________________________________________
batch_normalization_1 (Batch (None, 480)               1920      
_________________________________________________________________
dropout_1 (Dropout)          (None, 480)               0         
_________________________________________________________________
dense_2 (Dense)              (None, 480)               230880    
_________________________________________________________________
batch_normalization_2 (Batch (None, 480)               1920      
_________________________________________________________________
dropout_2 (Dropout)          (None, 480)               0         
_________________________________________________________________
dense_3 (Dense)              (None, 1)                 481       
=================================================================
Total params: 481,441
Trainable params: 478,561
Non-trainable params: 2,880
_________________________________________________________________
{'name': 'sequential', 'layers': [{'class_name': 'Dense', 'config': {'name': 'dense', 'trainable': True, 'batch_input_shape': (None, 27), 'dtype': 'float32', 'units': 480, 'activation'
…
: 'relu', 'use_bias': True, 'kernel_initializer': {'class_name': 'GlorotUniform', 'config': {'seed': None}}, 'bias_initializer': {'class_name': 'Zeros', 'config': {}}, 'kernel_regularizer': None, 'bias_regularizer': None, 'activity_regularizer': None, 'kernel_constraint': None, 'bias_constraint': None}}], 'build_input_shape': TensorShape([None, 27])}
Model: "sequential"
_________________________________________________________________
Layer (type)                 Output Shape              Param #   
=================================================================
dense (Dense)                (None, 464)               12992     
_________________________________________________________________
batch_normalization (BatchNo (None, 464)               1856      
_________________________________________________________________
dropout (Dropout)            (None, 464)               0         
_________________________________________________________________
dense_1 (Dense)              (None, 464)               215760    
_________________________________________________________________
batch_normalization_1 (Batch (None, 464)               1856      
_________________________________________________________________
dropout_1 (Dropout)          (None, 464)               0         
_________________________________________________________________
dense_2 (Dense)              (None, 464)               215760    
_________________________________________________________________
batch_normalization_2 (Batch (None, 464)               1856      
_________________________________________________________________
dropout_2 (Dropout)          (None, 464)               0         
_________________________________________________________________
dense_3 (Dense)              (None, 1)                 465       
=================================================================
Total params: 450,545
Trainable params: 447,761
Non-trainable params: 2,784
_________________________________________________________________
{'name': 'sequential', 'layers': [{'class_name': 'Dense', 'config': {'name': 'dense', 'trainable': True, 'batch_input_shape': (None, 27), 'dtype': 'float32', 'units': 464, 'activation'
…
: 'relu', 'use_bias': True, 'kernel_initializer': {'class_name': 'GlorotUniform', 'config': {'seed': None}}, 'bias_initializer': {'class_name': 'Zeros', 'config': {}}, 'kernel_regularizer': None, 'bias_regularizer': None, 'activity_regularizer': None, 'kernel_constraint': None, 'bias_constraint': None}}], 'build_input_shape': TensorShape([None, 27])}
Model: "sequential"
_________________________________________________________________
Layer (type)                 Output Shape              Param #   
=================================================================
dense (Dense)                (None, 368)               10304     
_________________________________________________________________
batch_normalization (BatchNo (None, 368)               1472      
_________________________________________________________________
dropout (Dropout)            (None, 368)               0         
_________________________________________________________________
dense_1 (Dense)              (None, 368)               135792    
_________________________________________________________________
batch_normalization_1 (Batch (None, 368)               1472      
_________________________________________________________________
dropout_1 (Dropout)          (None, 368)               0         
_________________________________________________________________
dense_2 (Dense)              (None, 368)               135792    
_________________________________________________________________
batch_normalization_2 (Batch (None, 368)               1472      
_________________________________________________________________
dropout_2 (Dropout)          (None, 368)               0         
_________________________________________________________________
dense_3 (Dense)              (None, 1)                 369       
=================================================================
Total params: 286,673
Trainable params: 284,465
Non-trainable params: 2,208
_________________________________________________________________
{'name': 'sequential', 'layers': [{'class_name': 'Dense', 'config': {'name': 'dense', 'trainable': True, 'batch_input_shape': (None, 27), 'dtype': 'float32', 'units': 368, 'activation'
…
: 'relu', 'use_bias': True, 'kernel_initializer': {'class_name': 'GlorotUniform', 'config': {'seed': None}}, 'bias_initializer': {'class_name': 'Zeros', 'config': {}}, 'kernel_regularizer': None, 'bias_regularizer': None, 'activity_regularizer': None, 'kernel_constraint': None, 'bias_constraint': None}}], 'build_input_shape': TensorShape([None, 27])}
Model: "sequential"
_________________________________________________________________
Layer (type)                 Output Shape              Param #   
=================================================================
dense (Dense)                (None, 336)               9408      
_________________________________________________________________
batch_normalization (BatchNo (None, 336)               1344      
_________________________________________________________________
dropout (Dropout)            (None, 336)               0         
_________________________________________________________________
dense_1 (Dense)              (None, 336)               113232    
_________________________________________________________________
batch_normalization_1 (Batch (None, 336)               1344      
_________________________________________________________________
dropout_1 (Dropout)          (None, 336)               0         
_________________________________________________________________
dense_2 (Dense)              (None, 336)               113232    
_________________________________________________________________
batch_normalization_2 (Batch (None, 336)               1344      
_________________________________________________________________
dropout_2 (Dropout)          (None, 336)               0         
_________________________________________________________________
dense_3 (Dense)              (None, 1)                 337       
=================================================================
Total params: 240,241
Trainable params: 238,225
Non-trainable params: 2,016
_________________________________________________________________
{'name': 'sequential', 'layers': [{'class_name': 'Dense', 'config': {'name': 'dense', 'trainable': True, 'batch_input_shape': (None, 27), 'dtype': 'float32', 'units': 336, 'activation'
…
: 'relu', 'use_bias': True, 'kernel_initializer': {'class_name': 'GlorotUniform', 'config': {'seed': None}}, 'bias_initializer': {'class_name': 'Zeros', 'config': {}}, 'kernel_regularizer': None, 'bias_regularizer': None, 'activity_regularizer': None, 'kernel_constraint': None, 'bias_constraint': None}}], 'build_input_shape': TensorShape([None, 27])}
Model: "sequential"
_________________________________________________________________
Layer (type)                 Output Shape              Param #   
=================================================================
dense (Dense)                (None, 224)               6272      
_________________________________________________________________
batch_normalization (BatchNo (None, 224)               896       
_________________________________________________________________
dropout (Dropout)            (None, 224)               0         
_________________________________________________________________
dense_1 (Dense)              (None, 224)               50400     
_________________________________________________________________
batch_normalization_1 (Batch (None, 224)               896       
_________________________________________________________________
dropout_1 (Dropout)          (None, 224)               0         
_________________________________________________________________
dense_2 (Dense)              (None, 224)               50400     
_________________________________________________________________
batch_normalization_2 (Batch (None, 224)               896       
_________________________________________________________________
dropout_2 (Dropout)          (None, 224)               0         
_________________________________________________________________
dense_3 (Dense)              (None, 1)                 225       
=================================================================
Total params: 109,985
Trainable params: 108,641
Non-trainable params: 1,344
_________________________________________________________________
{'name': 'sequential', 'layers': [{'class_name': 'Dense', 'config': {'name': 'dense', 'trainable': True, 'batch_input_shape': (None, 27), 'dtype': 'float32', 'units': 224, 'activation'
…
: 'relu', 'use_bias': True, 'kernel_initializer': {'class_name': 'GlorotUniform', 'config': {'seed': None}}, 'bias_initializer': {'class_name': 'Zeros', 'config': {}}, 'kernel_regularizer': None, 'bias_regularizer': None, 'activity_regularizer': None, 'kernel_constraint': None, 'bias_constraint': None}}], 'build_input_shape': TensorShape([None, 27])}
Model: "sequential"
_________________________________________________________________
Layer (type)                 Output Shape              Param #   
=================================================================
dense (Dense)                (None, 256)               7168      
_________________________________________________________________
batch_normalization (BatchNo (None, 256)               1024      
_________________________________________________________________
dropout (Dropout)            (None, 256)               0         
_________________________________________________________________
dense_1 (Dense)              (None, 256)               65792     
_________________________________________________________________
batch_normalization_1 (Batch (None, 256)               1024      
_________________________________________________________________
dropout_1 (Dropout)          (None, 256)               0         
_________________________________________________________________
dense_2 (Dense)              (None, 256)               65792     
_________________________________________________________________
batch_normalization_2 (Batch (None, 256)               1024      
_________________________________________________________________
dropout_2 (Dropout)          (None, 256)               0         
_________________________________________________________________
dense_3 (Dense)              (None, 1)                 257       
=================================================================
Total params: 142,081
Trainable params: 140,545
Non-trainable params: 1,536
_________________________________________________________________
{'name': 'sequential', 'layers': [{'class_name': 'Dense', 'config': {'name': 'dense', 'trainable': True, 'batch_input_shape': (None, 27), 'dtype': 'float32', 'units': 256, 'activation'
…
: 'relu', 'use_bias': True, 'kernel_initializer': {'class_name': 'GlorotUniform', 'config': {'seed': None}}, 'bias_initializer': {'class_name': 'Zeros', 'config': {}}, 'kernel_regularizer': None, 'bias_regularizer': None, 'activity_regularizer': None, 'kernel_constraint': None, 'bias_constraint': None}}], 'build_input_shape': TensorShape([None, 27])}
Model: "sequential"
_________________________________________________________________
Layer (type)                 Output Shape              Param #   
=================================================================
dense (Dense)                (None, 240)               6720      
_________________________________________________________________
batch_normalization (BatchNo (None, 240)               960       
_________________________________________________________________
dropout (Dropout)            (None, 240)               0         
_________________________________________________________________
dense_1 (Dense)              (None, 240)               57840     
_________________________________________________________________
batch_normalization_1 (Batch (None, 240)               960       
_________________________________________________________________
dropout_1 (Dropout)          (None, 240)               0         
_________________________________________________________________
dense_2 (Dense)              (None, 240)               57840     
_________________________________________________________________
batch_normalization_2 (Batch (None, 240)               960       
_________________________________________________________________
dropout_2 (Dropout)          (None, 240)               0         
_________________________________________________________________
dense_3 (Dense)              (None, 1)                 241       
=================================================================
Total params: 125,521
Trainable params: 124,081
Non-trainable params: 1,440
_________________________________________________________________
{'name': 'sequential', 'layers': [{'class_name': 'Dense', 'config': {'name': 'dense', 'trainable': True, 'batch_input_shape': (None, 27), 'dtype': 'float32', 'units': 240, 'activation'
…
: 'relu', 'use_bias': True, 'kernel_initializer': {'class_name': 'GlorotUniform', 'config': {'seed': None}}, 'bias_initializer': {'class_name': 'Zeros', 'config': {}}, 'kernel_regularizer': None, 'bias_regularizer': None, 'activity_regularizer': None, 'kernel_constraint': None, 'bias_constraint': None}}], 'build_input_shape': TensorShape([None, 27])}
Model: "sequential"
_________________________________________________________________
Layer (type)                 Output Shape              Param #   
=================================================================
dense (Dense)                (None, 416)               11648     
_________________________________________________________________
batch_normalization (BatchNo (None, 416)               1664      
_________________________________________________________________
dropout (Dropout)            (None, 416)               0         
_________________________________________________________________
dense_1 (Dense)              (None, 416)               173472    
_________________________________________________________________
batch_normalization_1 (Batch (None, 416)               1664      
_________________________________________________________________
dropout_1 (Dropout)          (None, 416)               0         
_________________________________________________________________
dense_2 (Dense)              (None, 416)               173472    
_________________________________________________________________
batch_normalization_2 (Batch (None, 416)               1664      
_________________________________________________________________
dropout_2 (Dropout)          (None, 416)               0         
_________________________________________________________________
dense_3 (Dense)              (None, 1)                 417       
=================================================================
Total params: 364,001
Trainable params: 361,505
Non-trainable params: 2,496
_________________________________________________________________
{'name': 'sequential', 'layers': [{'class_name': 'Dense', 'config': {'name': 'dense', 'trainable': True, 'batch_input_shape': (None, 27), 'dtype': 'float32', 'units': 416, 'activation'
…
: 'relu', 'use_bias': True, 'kernel_initializer': {'class_name': 'GlorotUniform', 'config': {'seed': None}}, 'bias_initializer': {'class_name': 'Zeros', 'config': {}}, 'kernel_regularizer': None, 'bias_regularizer': None, 'activity_regularizer': None, 'kernel_constraint': None, 'bias_constraint': None}}], 'build_input_shape': TensorShape([None, 27])}
Model: "sequential"
_________________________________________________________________
Layer (type)                 Output Shape              Param #   
=================================================================
dense (Dense)                (None, 496)               13888     
_________________________________________________________________
batch_normalization (BatchNo (None, 496)               1984      
_________________________________________________________________
dropout (Dropout)            (None, 496)               0         
_________________________________________________________________
dense_1 (Dense)              (None, 496)               246512    
_________________________________________________________________
batch_normalization_1 (Batch (None, 496)               1984      
_________________________________________________________________
dropout_1 (Dropout)          (None, 496)               0         
_________________________________________________________________
dense_2 (Dense)              (None, 496)               246512    
_________________________________________________________________
batch_normalization_2 (Batch (None, 496)               1984      
_________________________________________________________________
dropout_2 (Dropout)          (None, 496)               0         
_________________________________________________________________
dense_3 (Dense)              (None, 1)                 497       
=================================================================
Total params: 513,361
Trainable params: 510,385
Non-trainable params: 2,976
_________________________________________________________________
{'name': 'sequential', 'layers': [{'class_name': 'Dense', 'config': {'name': 'dense', 'trainable': True, 'batch_input_shape': (None, 27), 'dtype': 'float32', 'units': 496, 'activation'
…
